data/part3/cameraParams/camera_params_g3.npz (npz, 1480 bytes, 4 tensors)

mtx f8 [3, 3]
1162.063089566512 0.0 767.5179333740218 0.0 1141.5466764563414 531.1516942293525 0.0 0.0
1.0
00000000: 8d23 8d9a 4028 9240 0000 0000 0000 0000
00000010: 72b7 40ba 24fc 8740 0000 0000 0000 0000
00000020: ebf5 f3cb 2fd6 9140 7dd0 76ab 3699 8040
00000030: 0000 0000 0000 0000 0000 0000 0000 0000
00000040: 0000 0000 0000 f03f

dist f8 [1, 5]
-0.15587804132543562 -0.11672953160644811 0.020912988190571396 0.0033094688198905277 0.5162053540484757
00000000: d521 d4c8 cff3 c3bf c422 ba90 fce1 bdbf
00000010: 3b4d 5ce1 366a 953f 836a 278b 751c 6b3f
00000020: d410 3517 c184 e03f

rvecs f8 [8, 3, 1]
-0.5049002864926343 -0.5099694912541325 -1.4694918626386375 0.059516704632404015 0.7524658743338284 1.4495919920058256 -0.7226632539904402 -0.0705308335689767
-0.09973190268808055 -0.004495644006542809 -0.2070441941220899 -1.502009651502353 -0.564070960819854 0.06683922020546257 -1.481131469983035 -0.2711307202720755
-0.5289088457205512 -1.4960807410043737 -0.49467180825319146 -0.17411784712194098 1.5742502494447812 -0.6672048989517477 -0.47827425628179804 -0.15700933432511716
00000000: b942 47a5 2428 e0bf c19d dc89 ab51 e0bf
00000010: 5056 3ce6 0983 f7bf d379 ec37 f978 ae3f
00000020: b8d5 3350 3314 e83f 1356 635f 8731 f73f
00000030: c11d 3db0 0e20 e7bf dfd2 8907 4f0e b2bf
00000040: e2c4 69ac 0788 b9bf 9990 b83f 066a 72bf
00000050: e65f 4a95 6c80 cabf d6a9 b745 3b08 f8bf
00000060: b806 2b8b de0c e2bf fc62 df08 601c b13f
00000070: e774 8ae9 b6b2 f7bf 769b 20aa 345a d1bf
00000080: 83ea 5d3e d2ec e0bf b1a0 ec5b f2ef f7bf
00000090: 4ad7 acf1 b3a8 dfbf f3f2 845d 7e49 c6bf
000000a0: e35c 9107 2130 f93f d951 9716 be59 e5bf
000000b0: 5bf0 4fa0 0b9c debf faea 0bc2 e118 c4bf

tvecs f8 [8, 3, 1]
-4.001122091507424 2.611848074126137 10.113172416562536 2.975996252123427 -1.3493024452826334 12.812683565771492 -5.2253553512353195 -2.2472385667717534
14.063669997911953 -2.318506993897659 3.548611159859803 8.6939813359701 -2.9730744539920257 5.869621746907239 13.822532962468474 -2.5938476190466444
1.472237790935927 7.237473043483938 3.728502968882919 -2.13458634695119 12.076256212812547 -5.042734241806822 -2.5993824861108803 10.523808480518513
00000000: 5e4f 4926 2601 10c0 51f0 639a 10e5 0440
00000010: 09e4 27bc f139 2440 091c 7f1f d7ce 0740
00000020: 876d 2e29 be96 f5bf 6ff8 710f 18a0 2940
00000030: 1d23 9e8d c3e6 14c0 bac1 b436 58fa 01c0
00000040: 5589 9d5a 9920 2c40 a5b3 1265 4d8c 02c0
00000050: 408c 6e3f 8e63 0c40 4c0d 8c85 5163 2140
00000060: 1ec0 6342 dbc8 07c0 8c6d 8b1f 7e7a 1740
00000070: 415e 5b0a 23a5 2b40 06e7 342e 33c0 04c0
00000080: db14 c036 498e f73f c8c7 2d22 2cf3 1c40
00000090: db20 535d f9d3 0d40 d425 b501 a213 01c0
000000a0: 1d4b e80d 0b27 2840 2beb 6b86 c22b 14c0
000000b0: 9921 7d0b 89cb 04c0 9163 0aa0 300c 2540
