data/part3/cameraParams/camera_params_g2.npz (npz, 1480 bytes, 4 tensors)

mtx f8 [3, 3]
000000 01 28 35 92 3d 28 92 40 00 00 00 00 00 00 00 00
       1162.0601280503909 0.0
000010 1e 2c 2e 9c 06 fc 87 40 00 00 00 00 00 00 00 00
       767.5032275778974 0.0
000020 f2 eb c9 42 2c d6 91 40 52 d6 b6 37 32 99 80 40
       1141.5432235288868 531.149520328918
000030 00 00 00 00 00 00 00 00 00 00 00 00 00 00 00 00
       0.0 0.0
000040 00 00 00 00 00 00 f0 3f
       1.0

dist f8 [1, 5]
000000 38 a0 11 99 80 f5 c3 bf 77 67 d8 a3 92 cc bd bf
       -0.1559296367079257 -0.11640278339510056
000010 83 1c 6d ee 14 6a 95 3f 36 69 da d0 b2 16 6b 3f
       0.02091248231161248 0.003306721925423829
000020 cc 9d 6a c4 1d 80 e0 3f
       0.5156391941317735

rvecs f8 [8, 3, 1]
000000 63 95 92 71 3a 28 e0 bf a6 f1 e4 d0 96 51 e0 bf
       -0.5049106806006133 -0.5099596099822079
000010 96 1f 1d 3d 06 83 f7 bf 25 98 76 b6 06 7a ae 3f
       -1.4694883715874076 0.05952473618826585
000020 76 45 1b 9c 4d 14 e8 3f 73 5e 1b 52 86 31 f7 3f
       0.75247841348225 1.4495909888554734
000030 5f 99 f6 fd 0f 20 e7 bf f7 6b cd 10 6b 0d b2 bf
       -0.7226638756008404 -0.07051724586692375
000040 e8 2d 07 86 c7 87 b9 bf 7d 39 f0 64 76 74 72 bf
       -0.09972807905358361 -0.004505598523805052
000050 bf 0c 6e a8 18 80 ca bf c9 be 99 a4 3b 08 f8 bf
       -0.2070341894542249 -1.5020100049695648
000060 33 9a fd 3f ef 0c e2 bf 86 17 65 6f e9 1c b1 3f
       -0.5640789270226548 0.06684740991212665
000070 38 4c fc 9d b5 b2 f7 bf fe 49 b6 8c 61 5a d1 bf
       -1.4811302348432616 -0.27114142171299693
000080 9c 75 63 70 b9 ec e0 bf 4d dc 8c 73 ef ef f7 bf
       -0.5288970179641868 -1.4960779679947962
000090 02 35 9d 89 87 a8 df bf ac 69 31 b9 27 49 c6 bf
       -0.4946612209212874 -0.17410751860263696
0000a0 07 be 46 77 24 30 f9 3f 4e 49 e6 1d bf 59 e5 bf
       1.574253526614372 -0.6672053894019798
0000b0 19 56 0d de d8 9b de bf 43 1a 17 d0 bd 18 c4 bf
       -0.47826215443396475 -0.15700504933029621

tvecs f8 [8, 3, 1]
000000 03 bc 27 08 04 01 10 c0 08 e2 67 c2 1d e5 04 40
       -4.0009919428112 2.6118731677963787
000010 fe 7d 82 fa f1 39 24 40 df 06 3f 00 2b cf 07 40
       10.113174274853915 2.9761562365755334
000020 9a 9c 85 6a a7 96 f5 bf 81 40 53 4d 0b a0 29 40
       -1.349280754185918 12.812586227810472
000030 30 04 8d d9 94 e6 14 c0 ee 0f 7c 46 49 fa 01 c0
       -5.225177191955524 -2.247210074101523
000040 7d ac 33 a4 9c 20 2c 40 fa 17 28 6a 11 8c 02 c0
       14.063695079143367 -2.31839259085518
000050 e4 81 1b e8 98 63 0c 40 1b cd 7d 6f 4f 63 21 40
       3.5486314900774563 8.69396541987094
000060 ee 6d a1 ef 7b c8 07 c0 4f 66 88 04 87 7a 17 40
       -2.972892639268813 5.869655676675008
000070 e1 e3 fe 5e 1f a5 2b 40 17 76 9a 8d 03 c0 04 c0
       13.822504967321892 -2.5937567770731778
000080 1d e5 fe 2d 5b 8e f7 3f 31 24 91 59 2d f3 1c 40
       1.4722549244600664 7.237477683528639
000090 cc fb b0 28 4c d4 0d 40 0d f4 e3 1b 97 13 01 c0
       3.7286608866702178 -2.1345655611935457
0000a0 5c 20 66 be fe 26 28 40 30 e9 55 0f 9f 2b 14 c0
       12.07616229054127 -5.042598952883324
0000b0 9b a8 da 4e 7e cb 04 c0 48 fc be 58 34 0c 25 40
       -2.599362007186824 10.52383687335363
