data/part3/cameraParams/camera_params_g0.npz (npz, 1480 bytes, 4 tensors)

mtx f8 [3, 3]
0	0x4092283842b0012b	1162.0549418926919
1	0x0000000000000000	0.0
2	0x4087fbd1cf5dfeab	767.4774463027328
3	0x0000000000000000	0.0
4	0x4091d62610a3bf14	1141.5371728501677
5	0x4080992a6443f3e6	531.1456990536506
6	0x0000000000000000	0.0
7	0x0000000000000000	0.0
8	0x3ff0000000000000	1.0

dist f8 [1, 5]
0	0xbfc3f876eae018a8	-0.15602003544353704
1	0xbfbda70d5edfe75c	-0.11583026472353936
2	0x3f9569d96886ad80	0.020911595349088596
3	0x3f6b0c9979293f15	0.0033019063496694348
4	0x3fe077fd47473055	0.5146471397542977

rvecs f8 [8, 3, 1]
0	0xbfe02860abb4b48e	-0.5049289086943121
1	0xbfe051727ed566f5	-0.5099422909945291
2	0xbff782ffd1d70f22	-1.469482249915878
3	0x3fae7bdf0c08a677	0.05953881284615375
4	0x3fe8147bb93b197c	0.7525004022398174
5	0x3ff73184791ca756	1.4495892268118573
6	0xbfe720124ae5112f	-0.7226649725712714
7	0xbfb20bdb650e0e79	-0.07049342362557266
8	0xbfb987570f2cc01b	-0.09972137566069288
9	0xbf7286c422d061ba	-0.004523054271907185
10	0xbfca7f8595404ae9	-0.20701665675786465
11	0xbff8083c4a8fb894	-1.5020106232218824
12	0xbfe20d0c8e83c478	-0.564092901562744
13	0x3fb11dda47030125	0.06686176522908178
14	0xbff7b2b358e291a6	-1.481128070075195
15	0xbfd15ab041f11db6	-0.27116018714556434
16	0xbfe0ec8df7bb04fc	-0.5288762892234042
17	0xbff7efea59fe5820	-1.4960731044170714
18	0xbfdfa839b76317be	-0.49464266690153724
19	0xbfc6488fcd551e5a	-0.17408940816879942
20	0x3ff9302a7dd74e23	1.5742592731156797
21	0xbfe559c0ef6ea8d8	-0.6672062565242198
22	0xbfde9b7fe252df6c	-0.47824093915868704
23	0xbfc4187ec8358acb	-0.15699753547513348

tvecs f8 [8, 3, 1]
0	0xc01000c837fa09fd	-4.000763773571177
1	0x4004e534dff05949	2.611917256853449
2	0x402439f26a229de9	10.113177601552666
3	0x4007cfbe0c7873b5	2.9764367079028156
4	0xbff5967f6c321b1e	-1.349242613448673
5	0x40299ff4f26af8b4	12.812415671880764
6	0xc014e642f8b4e906	-5.22486485103787
7	0xc001fa2f053ab417	-2.247159996847141
8	0x402c20a26b120e67	14.063739152864583
9	0xc0028ba842d7556f	-2.318192026325668
10	0x400c63aba2540e9a	3.5486672098066494
11	0x4021634bc8636a9d	8.69393755162792
12	0xc007c7d4d1a12dff	-2.972573888522447
13	0x40177a96a4ee8ea5	5.8697152872661364
14	0x402ba518f225a85e	13.8224559470147
15	0xc004bfb00df1da48	-2.5935975160057616
16	0x3ff78e7abec24430	1.4722850276487058
17	0x401cf32f7e8b631f	7.237485863931197
18	0x400dd4dd4e69240e	3.7289377332531393
19	0xc0011383f2bf5c9c	-2.134529015030763
20	0x402826e92c2b9337	12.07599771530077
21	0xc0142b60e258fe14	-5.042361771279975
22	0xc004cb6b6f7bac06	-2.599326010667485
23	0x40250c3ae1d74fa6	10.523886735470864
