data/part3/cameraParams/camera_params_g8.npz (npz, 1480 bytes, 4 tensors)

mtx f8 [3, 3]
0	0x4092283cf3937b18	1162.0595229190712
1	0x0000000000000000	0.0
2	0x4087fc0073722e7f	767.5002201958122
3	0x0000000000000000	0.0
4	0x4091d62b89bd7db8	1141.5425176246627
5	0x408099314e3a58d9	531.1490749891628
6	0x0000000000000000	0.0
7	0x0000000000000000	0.0
8	0x3ff0000000000000	1.0

dist f8 [1, 5]
0	0xbfc3f5d90dce93ce	-0.1559401814858163
1	0xbfbdc8323ecd2c7f	-0.11633600266684317
2	0x3f956a0dfe313281	0.02091237892118381
3	0x3f6b15853cc4849d	0.0033061601917699483
4	0x3fe07f2b18561522	0.5155234790151193

rvecs f8 [8, 3, 1]
0	0xbfe0283ee6f7db27	-0.5049128066155831
1	0xbfe0519294293e29	-0.5099575895091607
2	0xbff783057d71ce33	-1.4694876575639568
3	0x3fae7a3dd1446443	0.05952637843638133
4	0x3fe81452fd08d634	0.7524809782104911
5	0x3ff731861af847dd	1.4495907834539061
6	0xbfe72010427c43e5	-0.7226640032332595
7	0xbfb20d3c71eb9b00	-0.07051446706064368
8	0xbfb987ba67826097	-0.09972729708749949
9	0xbf727698dbec5315	-0.0045076342637642335
10	0xbfca80077f7b83e7	-0.20703214382868326
11	0xbff8083bb7fac886	-1.5020100771621698
12	0xbfe20cf2aaf5d78f	-0.5640805567806967
13	0x3fb11d058834ca34	0.06684908461901601
14	0xbff7b2b55a32467b	-1.4811299823089985
15	0xbfd15a6abadb9fdc	-0.27114361045687274
16	0xbfe0ecb45e0ea0d1	-0.5288945996335547
17	0xbff7efeedb49023a	-1.4960774007632964
18	0xbfdfa87e7572cc0f	-0.49465905637333746
19	0xbfc6491600fab621	-0.17410540626353657
20	0x3ff930252b337c83	1.5742541968864152
21	0xbfe559bf5406eb8c	-0.6672054902222597
22	0xbfde9bce7ccefac8	-0.4782596796830316
23	0xbfc418b675f5d0b6	-0.15700417289520424

tvecs f8 [8, 3, 1]
0	0xc01000fd0dff544b	-4.000965326985418
1	0x4004e520742bb084	2.6118783069451315
2	0x402439f207834beb	10.11317466237775
3	0x4007cf3c27744155	2.9761889536240838
4	0xbff596a2c176bacb	-1.3492763096980294
5	0x4029a008b1b2985a	12.812566330958521
6	0xc014e68b4c7ac4c4	-5.225140757554247
7	0xc001fa463728f13b	-2.2472042378778077
8	0x402c209d50a20fdf	14.063700217993697
9	0xc0028c0526065403	-2.3183691950494008
10	0x400c639b16f39b03	3.5486356537907127
11	0x4021634f026edf00	8.693962169679708
12	0xc007c86871234760	-2.9728554572001684
13	0x40177a88d6d6fbc4	5.869662625190305
14	0x402ba51e9f23be56	13.822499249566288
15	0xc004bff9d0279637	-2.5937381994324613
16	0x3ff78e5edbe94876	1.4722584333690327
17	0x401cf32d9995358c	7.237478637439732
18	0x400dd45d1723bd5b	3.7286931808263666
19	0xc0011394e04af702	-2.134561302459475
20	0x402826fc3a2d5a63	12.076143091236366
21	0xc0142b97ce9f8a93	-5.0425712857128415
22	0xc004cb7c1bd0caa6	-2.59935781222278
23	0x40250c351bd557e1	10.523842687409287
